…
  checkpoint_dir: ./outputs/checkpoints/rotation_invariant
  checkpoint_freq: 1
  val_freq: 1
  device: auto
  wandb:
    enabled: true
    project: deep-steganography-final
    entity: null
    run_name: null
evaluation:
  batch_size: 32
  metrics:
  - psnr
  - ssim
  - lpips
  - bit_acc
embed:
  checkpoint_path: ./outputs/checkpoints/rotation_invariant/best_checkpoint.pth

---------------------
Using device: cuda
WandB run 'CIFAR10_binary_ep2_bs32' initialized.
Loading data...
Using CIFAR10: 50000 train, 10000 val images.
Data loaded.
Initializing model...
SteganoModel(
  (prep): PrepNet(
    (net): Sequential(
      (0): Sequential(
        (0): Conv2d(1, 32, kernel_size=(5, 5), stride=(1, 1), padding=(2, 2), bias=False)
        (1): BatchNorm2d(32, eps=1e-05, momentum=0.1, affine=True, track_running_stats=True)
        (2): ReLU(inplace=True)
      )
      (1): Sequential(
        (0): Conv2d(32, 64, kernel_size=(3, 3), stride=(1, 1), padding=(1, 1), bias=False)
        (1): BatchNorm2d(64, eps=1e-05, momentum=0.1, affine=True, track_running_stats=True)
        (2): ReLU(inplace=True)
      )
      (2): Sequential(
        (0): Conv2d(64, 32, kernel_size=(3, 3), stride=(1, 1), padding=(1, 1), bias=False)
        (1): BatchNorm2d(32, eps=1e-05, momentum=0.1, affine=True, track_running_stats=True)
        (2): ReLU(inplace=True)
      )
    )
  )
  (hider): HideNet(
    (enc1): Sequential(
      (0): Conv2d(35, 64, kernel_size=(3, 3), stride=(1, 1), padding=(1, 1), bias=False)
      (1): BatchNorm2d(64, eps=1e-05, momentum=0.1, affine=True, track_running_stats=True)
      (2): ReLU(inplace=True)
    )
    (enc2): Sequential(
      (0): Conv2d(64, 128, kernel_size=(3, 3), stride=(2, 2), padding=(1, 1), bias=False)
      (1): BatchNorm2d(128, eps=1e-05, momentum=0.1, affine=True, track_running_stats=True)
      (2): ReLU(inplace=True)
    )
    (bottleneck): Sequential(
      (0): Conv2d(128, 128, kernel_size=(3, 3), stride=(1, 1), padding=(1, 1), bias=False)
      (1): BatchNorm2d(128, eps=1e-05, momentum=0.1, affine=True, track_running_stats=True)
      (2): ReLU(inplace=True)
    )
    (up): ConvTranspose2d(128, 64, kernel_size=(2, 2), stride=(2, 2))
    (dec1): Sequential(
      (0): Conv2d(128, 64, kernel_size=(3, 3), stride=(1, 1), padding=(1, 1), bias=False)
      (1): BatchNorm2d(64, eps=1e-05, momentum=0.1, affine=True, track_running_stats=True)
      (2): ReLU(inplace=True)
    )
    (out_conv): Conv2d(64, 3, kernel_size=(1, 1), stride=(1, 1))
  )
  (reveal): RevealNet(
    (net): RevealNetRotInvariant(
      (conv1): R2Conv([C4_on_R2[(None, 4)]: {irrep_0 (x3)}(3)], [C4_on_R2[(None, 4)]: {regular (x8)}(32)], kernel_size=5, stride=1, padding=2)
      (bn1): InnerBatchNorm([C4_on_R2[(None, 4)]: {regular (x8)}(32)], eps=1e-05, momentum=0.1, affine=True, track_running_stats=True)
      (relu1): ReLU(inplace=False, type=[C4_on_R2[(None, 4)]: {regular (x8)}(32)])
…
